onnx_models/AdaBoost_Day0.onnx (onnx, 399067 bytes, 1 tensors)

estimators_weights f4 [400]
00000000: ec87 c13d f524 b13d 2384 b03d 8e10 bd3d
00000010: 3ba3 b23d eff2 bb3d c6f7 a73d 415f c03d
00000020: ed3d c03d 53c0 a23d 97de bc3d b710 bc3d
00000030: bf77 bb3d 9d03 bc3d 6d22 963d a71d b73d
00000040: cabf 833d b734 b33d 9b32 a53d 1280 b43d
00000050: 3419 7d3d c310 a43d 6cfb b73d b6e9 933d
00000060: b028 ac3d 2942 a23d 9567 aa3d 82b0 a13d
00000070: 5763 9f3d 6cc9 763d d9fb 9e3d adbe 943d
00000080: c2e6 863d e875 6f3d c825 893d 3ff1 7c3d
00000090: 7107 9c3d 2c16 813d a0ef 9a3d c3cd 993d
000000a0: 61d6 573d 53e9 823d 371f 823d 0fde 943d
000000b0: 7fd8 633d e57d 6a3d 79cf 4e3d 115e 603d
000000c0: 9301 4f3d 1de6 633d 4896 433d 690b 403d
000000d0: 5b4b 473d a3bd 873d 9657 4d3d 4291 4a3d
000000e0: a157 443d 08a8 393d fafa 673d 10ac 903d
000000f0: cc90 7b3d cb65 913d 31f0 223d 1fbb 4e3d
00000100: 6277 823d 9d46 233d 3de8 843d a9ec 2c3d
00000110: 9d67 6b3d 010d 383d 39f8 933d 77b2 423d
00000120: 7784 483d 3c2f 823d a7e5 763d 01ce 8a3d
00000130: 3511 333d 3ce3 123d caa8 8d3d f2ad 023d
00000140: 8711 5a3d 69dc 8d3d f213 323d 59d2 313d
00000150: 1dfe 3c3d bce4 593d cb4c 163d 85a8 fd3c
00000160: 9637 433d befc 563d f0eb 6c3d f0df 773d
00000170: decc 723d 0b1f 223d 5637 513d 1e8f 693d
00000180: 77d7 e93c 33ce 323d 0ee8 713d 55ae 653d
00000190: 741f 7b3d c625 3c3d e5e6 243d 38f6 363d
000001a0: 7da6 fc3c 0f01 073d 6533 853d c461 603d
000001b0: b93a 883d 7407 0e3d cb34 a93c 13dd f33c
000001c0: 310c 1d3d 4127 543d 57d2 3c3d 43a9 533d
000001d0: b6b2 383d 6fac 2c3d 2bf2 f63c 039e 6a3d
000001e0: 3fc8 5c3d 1a3a 2a3d aee1 853d 2573 523d
000001f0: 55e4 613d ff7f 393d beff 503d 3f53 573d
00000200: bdeb d83c 101c e83c 6e9c 9d3d 5e00 293d
00000210: a01e 683d eb86 423d 4dda 6b3d 1451 723d
00000220: c3c4 553d 7bf8 4e3d 205a d53c c501 483d
00000230: 6995 4d3d a05c 233d feef 153d ab08 533d
00000240: c73b 513d 4631 1b3d d463 4c3d facb b03c
00000250: e326 473d 1d41 563d e105 053d 5006 403d
00000260: 71e2 413d b473 523d b3c3 c63c 3a1c 583d
00000270: 69c8 723d e116 543d 82af 183d d5f7 5d3d
00000280: 8d62 573d 4956 673d e071 2e3d 2bea 0d3d
00000290: e13b 5b3d 65c9 163d 3ae3 373d 396a 133d
000002a0: e8c4 203d f65c 733d c12e dc3c 4a22 313d
000002b0: 99b0 203d 1300 543d 2d98 203d 728d 1a3d
000002c0: 06fe 173d 46b0 213d 0c72 4b3d c032 383d
000002d0: 3b13 3f3d 23a2 6d3d d83b 133d 144d 313d
000002e0: 26e5 1c3d 5db2 d33c 6512 4c3d 8c87 043d
000002f0: 646e 0b3d 51ec ec3c 3f9f 483d 1adb 363d
00000300: ebb4 1b3d 77da 2b3d 8a21 423d 64cb 493d
00000310: e622 0f3d db45 0f3d da29 303d 2084 fe3c
00000320: 2185 133d 5242 403d 4fcd 213d 5110 df3c
00000330: 7eb6 553d 2392 333d e893 cf3c 965f 3f3d
00000340: 8859 313d 3577 343d ac56 2e3d 1b05 403d
00000350: 1ad9 fc3c 5517 1b3d 5e79 9f3c f98a ef3c
00000360: c027 f93c c761 1b3d 56a4 3a3d dc1f 183d
00000370: 55cd 4b3d dadd 0b3d c966 333d 12d2 2a3d
00000380: fe48 5e3d 3474 043d 5b39 b13c e430 353d
00000390: 58e2 0a3d 0d07 3d3d a14c 233d 61df 1c3d
000003a0: 93d4 1c3d 1985 193c 1aca 013d 648a 313d
000003b0: 3a05 413d b652 f23c 86d2 e83c a48a d93c
000003c0: a143 1a3d e6b8 233d dab3 ea3c 2c96 163d
000003d0: 82fa 0e3d 1b0e d63c 1f9d fc3c 9498 263d
000003e0: 2aee 533c fc0a 3d3d 757d 323d 2e18 543d
000003f0: 71aa 3a3d 93a7 563d f283 333d a426 0e3d
0.09449753 0.08649627 0.08618953 0.09231673 0.0872254 0.09177195 0.08201556 0.09393168
0.093868114 0.07946839 0.09222143 0.091828756 0.09153699 0.09180377 0.07330785 0.089412026
0.06433065 0.08750289 0.08066293 0.0881349 0.061791614 0.080110095 0.08983502 0.07222311
0.08406198 0.07922775 0.08320538 0.07894994 0.077826194 0.060250685 0.0776288 0.07262931
0.06586982 0.058462054 0.06696659 0.061753508 0.07618607 0.06303057 0.07565236 0.07509949
0.052694682 0.06392159 0.0635361 0.07268917 0.05562639 0.05724897 0.05049083 0.05477721
0.05053861 0.055639375 0.04775074 0.04688588 0.04865585 0.06627967 0.050132357 0.049454935
0.047935132 0.045326263 0.056635834 0.07064068 0.061417386 0.070994936 0.039779846 0.05047142
0.06370427 0.039862264 0.064896084 0.042217884 0.05747186 0.044934276 0.07225079 0.04753348
0.048954453 0.063566655 0.060277607 0.067775734 0.04371758 0.03586124 0.069169596 0.03190417
0.05323937 0.069268055 0.043476053 0.043413494 0.04614078 0.053196654 0.03669433 0.030964145
0.047660433 0.052487127 0.057842195 0.060516298 0.059277408 0.039580386 0.051078163 0.057021253
0.028545124 0.04365368 0.059059195 0.05607446 0.061309293 0.04593446 0.04025926 0.044668406
0.030841107 0.032959994 0.06503943 0.054780737 0.066518255 0.034675077 0.020655056 0.029768502
0.038341705 0.051795248 0.046099033 0.051675092 0.045092307 0.042156633 0.030144772 0.057279598
0.053901907 0.041559316 0.065371856 0.05137934 0.055149395 0.045288082 0.051025145 0.052569624
0.026479596 0.028333694 0.07695852 0.041260116 0.05666983 0.04749195 0.057581235 0.059159353
0.0521896 0.05052994 0.026043952 0.048829813 0.050191317 0.039883256 0.036605828 0.05152194
0.0510824 0.037888788 0.04989989 0.021581639 0.04862107 0.05230819 0.03247631 0.04688102
0.047335092 0.051379874 0.024263239 0.052761294 0.059273157 0.05177963 0.037276752 0.05419143
0.05258422 0.056478772 0.04258907 0.034647148 0.0535239 0.03681316 0.044894435 0.035989974
0.039250284 0.059414826 0.026877763 0.04324559 0.039230917 0.051757883 0.039207626 0.03773255
0.03710749 0.039474748 0.04966931 0.044970274 0.0466492 0.058015954 0.035945743 0.043286398
0.03830447 0.025841886 0.04982223 0.03235583 0.034040824 0.028921278 0.048979994 0.044642545
0.038014334 0.04195639 0.047395267 0.049266234 0.03494539 0.03497873 0.043008663 0.031068861
0.036015633 0.046938248 0.03950244 0.02722946 0.05217599 0.04384054 0.025339082 0.046722017
0.043298274 0.044058997 0.042563125 0.04687987 0.03086524 0.037864048 0.019467052 0.029241072
0.030414462 0.037935045 0.04556688 0.03713976 0.049756367 0.03414712 0.043799195 0.041704245
0.05426883 0.032337382 0.021633795 0.04423608 0.033907264 0.046149302 0.039868 0.03829897
0.038288664 0.009370112 0.03168688 0.04334487 0.047124125 0.029580455 0.028420698 0.026555367
0.037662152 0.039971255 0.028650213 0.03676431 0.03490687 0.026129773 0.03083664 0.040672854
0.012935201 0.046153054 0.043576676 0.051780872 0.0455727 0.052405905 0.043827005 0.03470482
