onnx_models/AdaBoost_Day3.onnx (onnx, 399380 bytes, 1 tensors)

estimators_weights f4 [400]
00000000: db1a 953d b95e 993d 79e6 a13d 5b7b a93d
00000010: cdfd 923d 5d41 a43d 1687 a63d 8661 8b3d
00000020: 60d9 933d e66a 9a3d 825b 863d 60f7 a03d
00000030: 15c3 9c3d 1d9c 873d c132 893d 3030 7e3d
00000040: 25a0 963d 77c3 7f3d 8187 843d 7dd5 803d
00000050: 217c 9c3d b537 843d 6b9c 8e3d f2c7 8e3d
00000060: d57f 7d3d 5a2e 923d a300 903d bf5a 763d
00000070: 26a4 a23d d8a7 8c3d 2b19 8e3d b908 823d
00000080: 5df2 743d 4b55 723d 51a4 8e3d 37dd 8b3d
00000090: ea57 703d e4f1 833d edc1 693d 4aa7 573d
000000a0: 43c4 583d 543b 813d 4a50 853d 685a 873d
000000b0: 5975 823d a0d8 633d ac39 413d b706 603d
000000c0: 7314 803d cf44 633d de59 953d 57cf 7c3d
000000d0: 563b 7a3d 8199 423d 164c 583d 2863 723d
000000e0: e574 753d cdb6 383d af53 6a3d 8c3c 223d
000000f0: f81b 1e3d 0fcc 663d 4bea 4b3d 15c4 423d
00000100: 94ae 523d 0b3e 453d 4942 0f3d dd3b 8a3d
00000110: 79a3 763d c595 323d ba1e 723d 87e0 743d
00000120: f1ff 833d 56f8 0c3d 0a05 623d 7b2b 433d
00000130: 3974 203d 314e 343d c049 2c3d 8aab 3b3d
00000140: 68a3 233d dd6f 363d b123 293d ad80 523d
00000150: 11b7 383d 8625 253d 1bc1 0c3d a3c7 403d
00000160: 78d5 753d e247 093d 27b6 683d 2fad 2b3d
00000170: e48d 873d 482b 033d 2038 3e3d 57e3 1b3d
00000180: 1fc8 053d 8ede e43c 79b3 4c3d d2fb 213d
00000190: 122c 1e3d 690e 063d 58bb 033d 1d92 083d
000001a0: caa7 bd3c bfe1 093d 8bd5 113d 1d06 063d
000001b0: 8372 e53c 69b7 ec3c 90a1 fc3c d1bb 153d
000001c0: dc15 083d 0558 6f3d cad8 183d 9819 333d
000001d0: 5a43 293d 9058 253d d389 3d3d 4597 ad3c
000001e0: a484 f23c ada1 093d 1f29 c43c 89c0 2a3d
000001f0: 4a41 063d 942e 163d cd1a 303d e6c2 033d
00000200: 2aec 233d 632f ee3c a462 b33c 8e46 643d
00000210: ea8e 2a3d 90e3 3c3d 8e47 0a3d 3008 e23c
00000220: 4c03 0c3d 5b63 133d a52a bd3c c003 513d
00000230: 2d1a 143d c6ae 073d 9986 163d e99d 313d
00000240: 0844 cc3c bcc9 163d c22c 283d e7d3 093d
00000250: 1de2 2c3d 69ac c43c 5e55 2c3d c528 d73c
00000260: f5ca 073d 69a0 073d 1ecf 033d f66d cb3c
00000270: 1afa 0d3d 1a9f e63c 621a c13c c21f 073d
00000280: f341 3b3d 720e 403d 90db 283d a669 223d
00000290: 853c 8b3c 69cf 0e3d 6248 243d 83cb e83c
000002a0: 631d da3c d577 e23c 8835 ae3c ffb6 b43c
000002b0: c1cb e33c 2ffe d13c 6e30 e83c 72b5 373d
000002c0: 667e 013d f3d9 da3c c01a fb3c c8e6 3d3d
000002d0: 7982 013d b835 a73c c7b7 1a3d f805 db3c
000002e0: 3a8c db3c 58c1 173d 6a7d ec3c 05d8 d23c
000002f0: 40fd 0e3d 001d 933c d377 923c 81f7 423d
00000300: 60bf 243d 2562 bd3c 4b9b e83c 7a2d e13c
00000310: bbd9 783c 2d5b c43c 7ddf cc3c 48fe e93c
00000320: 44b7 1c3d 3546 023d 1e39 2f3c 9611 073d
00000330: bd6b 373c 9e27 963c ccb3 b03c 64c6 1e3d
00000340: a3bd b93c b15b 2f3c bc41 d13c ea64 c93c
00000350: 4cd5 bc3c 4ee1 503c 6b22 fd3c db85 9f3c
00000360: f6f4 e03c bf88 113d e8a2 c33c 4d85 c93c
00000370: 8e88 803c 1ec4 e23c 8b7d 9f3c 53de b83c
00000380: d335 c03c f8e2 ec3c f241 e93c 0da0 ad3c
00000390: 8596 f03c e30f b53c cc38 513d ffeb e33c
000003a0: 69b4 d43c b44d ea3c 8cda b63c 1fd2 a53c
000003b0: b2d1 293d 76e7 033d 2e77 3b3d 4c1a c93c
000003c0: e929 303d b2ac ad3c 4881 543d 05ce b53c
000003d0: 4f0a c43c c43b 0e3d 3e0f 923c 0230 a73c
000003e0: bef9 b43c 341f 153d dc5f af3c 451d 0c3d
000003f0: 966d c53c 73a6 ac3c 1935 ca3c 8ddc c23c
0.07280513 0.0748877 0.07905287 0.08275481 0.07177315 0.080202796 0.08131234 0.068057105
0.07219195 0.075399205 0.065604225 0.07859683 0.076543964 0.06621573 0.06699134 0.062057674
0.07354764 0.06244227 0.06471158 0.0629072 0.07640863 0.06455938 0.06963428 0.0697173
0.06188949 0.07137747 0.070313714 0.060145136 0.07941465 0.06867951 0.06938394 0.0634932
0.059801448 0.059163373 0.069649346 0.06829303 0.05867759 0.06442621 0.057069708 0.052649774
0.052921545 0.06310144 0.065094545 0.066090405 0.063700385 0.05562651 0.04717414 0.054693904
0.062539004 0.055485543 0.072925314 0.061721172 0.061091743 0.047509674 0.052806936 0.059176594
0.059925932 0.045096207 0.057208713 0.039608523 0.03860089 0.05634695 0.049783986 0.04755028
0.051436022 0.048154872 0.034975324 0.06749699 0.060214493 0.043599863 0.059111334 0.05978444
0.06445301 0.03441652 0.055180587 0.047648888 0.03917334 0.04401988 0.04206252 0.04581789
0.03995076 0.044540275 0.041293804 0.051392246 0.04509646 0.04031899 0.034363847 0.04706539
0.060018033 0.03351582 0.05681434 0.041913208 0.0661886 0.032023698 0.046440244 0.038058605
0.032661553 0.027938154 0.049975846 0.039546795 0.038616247 0.032728586 0.032161087 0.03334247
0.023151297 0.033662554 0.03560404 0.032720674 0.028008705 0.02889605 0.030838758 0.03655607
0.03322397 0.05843355 0.03731612 0.04372558 0.041323997 0.040367663 0.046274018 0.021190295
0.029604264 0.03360145 0.02394539 0.041687522 0.03277711 0.036665514 0.04299431 0.03216829
0.040020145 0.02907533 0.021897621 0.05573135 0.0416402 0.046115458 0.033759646 0.027591795
0.03418283 0.035983425 0.023091624 0.051028967 0.036157776 0.03312566 0.036749456 0.043363485
0.024934784 0.036813483 0.04105831 0.03364935 0.042207826 0.024007993 0.0420736 0.026264558
0.03315254 0.033111963 0.032179944 0.024832707 0.034662344 0.028152037 0.02357215 0.03298927
0.04571719 0.046888776 0.041225016 0.039651535 0.016996631 0.03486577 0.040108092 0.028417354
0.02662534 0.027645031 0.02126576 0.022059916 0.027807118 0.0256339 0.028343406 0.044850774
0.031614684 0.026715254 0.030652404 0.04636267 0.03161857 0.020411357 0.03777292 0.026736245
0.026800264 0.03704962 0.028868396 0.025737772 0.034909487 0.017958164 0.017879402 0.04759932
0.040221572 0.023118088 0.028394362 0.027487505 0.01518863 0.023969257 0.025008911 0.028563634
0.038260713 0.031805236 0.01069477 0.032975756 0.01119512 0.018329438 0.021570109 0.03876342
0.022673434 0.010703013 0.02554404 0.024584252 0.023050927 0.012749029 0.0309002 0.019473007
0.027460556 0.0355308 0.02388139 0.024599696 0.015690114 0.027681407 0.019469043 0.02256695
0.023463165 0.02891682 0.028473828 0.021194482 0.029368648 0.022102302 0.051079556 0.027822493
0.025964933 0.028601505 0.022321008 0.020241795 0.041459747 0.03220316 0.045767955 0.024548672
0.04300872 0.021200512 0.051881105 0.022192964 0.023930697 0.034724966 0.017829534 0.020408634
0.022091743 0.03640671 0.021408014 0.0342076 0.024100106 0.021075463 0.024683522 0.023786807
