onnx_models/AdaBoost_Day1.onnx (onnx, 399038 bytes, 1 tensors)

estimators_weights f4 [400]
0	0x3da5a8ec	0.0808886
1	0x3daaef7d	0.0834646
2	0x3d974b09	0.07387359
3	0x3da5af7f	0.08090114
4	0x3da840a3	0.082154535
5	0x3da5f40f	0.08103191
6	0x3d93f778	0.07224935
7	0x3da8bc43	0.08239033
8	0x3da6afb6	0.08138983
9	0x3da512e3	0.08060243
10	0x3d99570d	0.07487307
11	0x3d9d6bb7	0.076865606
12	0x3d8d0d46	0.06887297
13	0x3d9b98b9	0.07597489
14	0x3d9d1084	0.07669166
15	0x3d9c427f	0.076298706
16	0x3d9f8211	0.0778848
17	0x3d9bce4f	0.076077096
18	0x3d98ae48	0.074551165
19	0x3da001ab	0.07812818
20	0x3d9412e6	0.07230167
21	0x3d9bd810	0.0760957
22	0x3d88e7e7	0.06684857
23	0x3d7764c4	0.060398832
24	0x3d80bccd	0.06286011
25	0x3d8b3272	0.06796731
26	0x3d63ac5b	0.055584293
27	0x3d95b5dd	0.07310078
28	0x3d934b49	0.07192094
29	0x3d9496d8	0.07255334
30	0x3d8c29e7	0.0684393
31	0x3d8f0175	0.069827
32	0x3d827836	0.06370585
33	0x3d3da880	0.046303272
34	0x3d4ce88c	0.05002646
35	0x3d9323e1	0.07184578
36	0x3d707d3b	0.05871318
37	0x3d8fe886	0.07026772
38	0x3d738558	0.05945334
39	0x3d85d9f6	0.065357134
40	0x3d407524	0.046986714
41	0x3d8814d1	0.066445954
42	0x3d5cc648	0.053900033
43	0x3d6b6fa9	0.057479534
44	0x3d61b36d	0.055102754
45	0x3d87a054	0.06622377
46	0x3d4fa967	0.050698664
47	0x3d2a3675	0.04155584
48	0x3d814606	0.06312184
49	0x3d3b756f	0.04576629
50	0x3d884b05	0.06654934
51	0x3d3ddffb	0.046356183
52	0x3d44d073	0.048050355
53	0x3d2564d1	0.04037935
54	0x3d39f84e	0.045402817
55	0x3d5ada1c	0.05343066
56	0x3d840fc4	0.064483196
57	0x3d25ee00	0.040510178
58	0x3d3de09b	0.04635678
59	0x3d770a76	0.06031271
60	0x3d773f57	0.06036314
61	0x3d74db75	0.059779603
62	0x3d36489f	0.04450285
63	0x3d3824fd	0.04495715
64	0x3d44a018	0.04800424
65	0x3d1c345f	0.038135882
66	0x3d33a54b	0.043858808
67	0x3d24982e	0.040184192
68	0x3d4018ab	0.046898525
69	0x3d2cb240	0.04216218
70	0x3d370c9e	0.044689767
71	0x3d168936	0.03675195
72	0x3d6ceeec	0.05784504
73	0x3d1c1283	0.03810359
74	0x3d6e6a6b	0.058206957
75	0x3d72f1dd	0.05931269
76	0x3d37db92	0.044887133
77	0x3d2bdc24	0.04195799
78	0x3d48b260	0.048998237
79	0x3d6d5d59	0.05795035
80	0x3d1bd4cb	0.038044732
81	0x3d3ecbda	0.046581127
82	0x3d0162eb	0.031588476
83	0x3d84d327	0.064855866
84	0x3d053de5	0.03252973
85	0x3d17ca61	0.037058238
86	0x3d314dbf	0.043287035
87	0x3d0dd5ee	0.034627847
88	0x3d3ee946	0.046609186
89	0x3d3668e9	0.044533644
90	0x3d2abde0	0.041684985
91	0x3d3630e1	0.04448021
92	0x3d8350b3	0.064118765
93	0x3d19ee56	0.03758081
94	0x3d06b4bd	0.03288721
95	0x3d0d2fa2	0.034469254
96	0x3d1a571f	0.03768074
97	0x3d1bbb30	0.038020313
98	0x3d412ca6	0.04716172
99	0x3d190235	0.03735562
100	0x3d83a2d7	0.064275436
101	0x3d209fcc	0.039214894
102	0x3cc86b16	0.024465125
103	0x3d57ef52	0.052718468
104	0x3d080e18	0.033216566
105	0x3d69727c	0.056993946
106	0x3cf098d5	0.029369751
107	0x3d198150	0.037476838
108	0x3d057b44	0.03258826
109	0x3d120e18	0.035657972
110	0x3cfe14e7	0.031015826
111	0x3d1aeb51	0.03782207
112	0x3cca5976	0.024700861
113	0x3d397f4f	0.045287427
114	0x3d7188d7	0.05896839
115	0x3d026031	0.031830017
116	0x3ce79be5	0.028272578
117	0x3cd104c2	0.025514964
118	0x3d11cc7a	0.035595395
119	0x3d776bbd	0.06040548
120	0x3d47d8ff	0.048790928
121	0x3d397ea2	0.045286782
122	0x3d6e7604	0.058218017
123	0x3ce6280a	0.028095264
124	0x3d10aa2f	0.03531855
125	0x3cc09ca1	0.023512186
126	0x3d04130b	0.032244723
127	0x3d74baea	0.059748568
128	0x3d5cb19c	0.05388032
129	0x3d001338	0.03126833
130	0x3d2d2b0e	0.04227739
131	0x3ced8d9b	0.028998187
132	0x3d18d8e2	0.03731621
133	0x3cb56a33	0.022145366
134	0x3d3d7fbc	0.046264395
135	0x3d1eba38	0.03875181
136	0x3cdf8781	0.027286293
137	0x3d40072d	0.046881843
138	0x3d2d3e3d	0.042295683
139	0x3ca7e432	0.020494554
140	0x3d219c02	0.03945542
141	0x3cd60865	0.02612705
142	0x3d2b66db	0.041846137
143	0x3c9b6b7d	0.018972153
144	0x3cd053c4	0.025430568
145	0x3d2b6d07	0.041852023
146	0x3d08440e	0.033268027
147	0x3d0c5dcc	0.03426914
148	0x3d209843	0.039207708
149	0x3cb90cf7	0.02258919
150	0x3d031407	0.03200152
151	0x3d0247b9	0.03180668
152	0x3cae3cc3	0.021269208
153	0x3d1ae0cb	0.037812036
154	0x3d272452	0.040806122
155	0x3d02b98d	0.031915236
156	0x3d2981d5	0.041383583
157	0x3c93af18	0.018027827
158	0x3d228e6d	0.03968661
159	0x3d093546	0.03349807
160	0x3ce16ab1	0.027516695
161	0x3d2019f1	0.03908724
162	0x3ce03403	0.027368551
163	0x3d2b2c8e	0.041790538
164	0x3d306ed3	0.04307444
165	0x3d0407fb	0.032234173
166	0x3d5227c7	0.051307466
167	0x3d35215e	0.044221275
168	0x3ce622ea	0.02809282
169	0x3d147f9d	0.036254514
170	0x3d1e4bc5	0.03864648
171	0x3d0558ce	0.032555394
172	0x3cbbfba7	0.022947146
173	0x3d10e3d9	0.035373542
174	0x3ce016a1	0.02735454
175	0x3d0618dd	0.032738555
176	0x3d1f9f72	0.03897042
177	0x3cd27380	0.02568984
178	0x3cbee014	0.023300208
179	0x3d75b935	0.05999108
180	0x3cebc0af	0.028778402
181	0x3ce5578f	0.027995853
182	0x3d1b1270	0.03785938
183	0x3d28d080	0.041214466
184	0x3cccc9fb	0.024998656
185	0x3d12409b	0.035706144
186	0x3d19781d	0.037468065
187	0x3c9b9c6d	0.018995488
188	0x3d139ffb	0.03604124
189	0x3d09d232	0.033647723
190	0x3d278c27	0.040905144
191	0x3d068568	0.03284207
192	0x3d03f4dc	0.032215938
193	0x3d210c71	0.039318506
194	0x3ce19124	0.027535029
195	0x3d3f516f	0.04670852
196	0x3d09c889	0.03363851
197	0x3cf98687	0.030459655
198	0x3d2a056d	0.04150908
199	0x3cd86cae	0.02641901
200	0x3d580798	0.052741617
201	0x3d0b68ed	0.034035612
202	0x3d071e5e	0.032987945
203	0x3cf9c3ef	0.030488936
204	0x3d32e88a	0.043678798
205	0x3cf6d0cf	0.030128865
206	0x3ccc89d8	0.024968073
207	0x3d05ac03	0.032634746
208	0x3c928937	0.017887695
209	0x3d07a037	0.033111777
210	0x3d0df145	0.03465392
211	0x3cf75d55	0.030195871
212	0x3d1cf062	0.038315184
213	0x3c8b76da	0.017024446
214	0x3ccdb7d8	0.025112078
215	0x3d04295a	0.032266
216	0x3cf548d4	0.029941954
217	0x3c80aae1	0.015706481
218	0x3d10398b	0.035211127
219	0x3d2ab7ce	0.041679196
220	0x3cf51a57	0.029919786
221	0x3d015457	0.031574573
222	0x3ce2ffea	0.02770992
223	0x3c8f6c47	0.017507685
224	0x3ca5ad7f	0.020224331
225	0x3d0ec151	0.03485233
226	0x3c9d58a1	0.0192073
227	0x3d07e748	0.03317955
228	0x3ce25960	0.027630508
229	0x3d01d9da	0.0317019
230	0x3cdcb43c	0.026941411
231	0x3cdf1846	0.027233254
232	0x3d0dccf3	0.034619283
233	0x3cc9cdbc	0.024634235
234	0x3d51834a	0.051150598
235	0x3cd8f332	0.026483152
236	0x3cd55126	0.026039671
237	0x3cc1cf33	0.02365837
238	0x3c99b548	0.0187632
239	0x3d0355fc	0.032064423
240	0x3ca2ab01	0.019856932
241	0x3ccc8637	0.024966342
242	0x3ce6806d	0.02813741
243	0x3cbc1327	0.022958351
244	0x3c84f525	0.016230175
245	0x3d1d6200	0.03842354
246	0x3c854cae	0.016271915
247	0x3cce4721	0.025180401
248	0x3d02c639	0.03192732
249	0x3cbfe84a	0.023426194
250	0x3d0bf61f	0.034170266
251	0x3cdb1cd7	0.02674715
252	0x3cbaeb8f	0.022817401
253	0x3d303601	0.043020252
254	0x3c7f9352	0.015599089
255	0x3d015065	0.03157081
