onnx_models/AdaBoost_Day2.onnx (onnx, 398926 bytes, 1 tensors)

estimators_weights f4 [400]
0.07914006 0.0786928 0.07981464 0.08319134 0.070687205 0.07924582 0.07815103 0.06918753
0.077054754 0.0764712 0.06535267 0.06978421 0.07573899 0.07428072 0.07410985 0.06321779
0.07475522 0.06764594 0.06393232 0.069006145 0.06352406 0.068362676 0.06349607 0.05908292
0.060873747 0.071994156 0.058277756 0.056886468 0.06224182 0.060195673 0.059594296 0.06265924
0.06039346 0.0603469 0.05248979 0.07091329 0.05752103 0.046937212 0.054541033 0.05656867
0.059097487 0.062642045 0.05759999 0.05691513 0.05639141 0.04839637 0.06696508 0.05419611
0.05455039 0.0575853 0.053675085 0.05093664 0.046316482 0.065702416 0.051750995 0.0548634
0.04615117 0.049560037 0.057489663 0.040791295 0.044118844 0.04572845 0.05803005 0.039937466
0.042926088 0.043391604 0.045032825 0.03825068 0.04411562 0.03855137 0.06332402 0.04179368
0.05856899 0.048344556 0.04531286 0.049125995 0.032963563 0.046614412 0.053350005 0.035806403
0.03756979 0.06647167 0.054605745 0.052347686 0.057083204 0.03962594 0.038451627 0.032823987
0.037904408 0.032833952 0.024402274 0.033597343 0.034604765 0.03324482 0.03319603 0.039701205
0.03246277 0.030712595 0.03424143 0.052160576 0.05923194 0.03387194 0.05282688 0.024836099
0.05375948 0.038350057 0.03426353 0.056338508 0.028733013 0.030157572 0.029272033 0.027798107
0.047110807 0.028063083 0.03446259 0.03286349 0.029484423 0.03149062 0.024311574 0.030105792
0.047368575 0.02502919 0.030614968 0.025623117 0.029074168 0.038471263 0.027450444 0.023582406
0.04995999 0.029499866 0.040881068 0.023235923 0.028661245 0.016345583 0.03002024 0.058604408
0.026406743 0.03995941 0.03001095 0.06158415 0.041153878 0.035420466 0.0139203025 0.03998291
0.04630359 0.017999006 0.030538144 0.046150923 0.049998466 0.041283112 0.04448827 0.021832515
0.027717346 0.030818246 0.047440667 0.037712354 0.038792275 0.034254193 0.035799824 0.037347354
0.037073363 0.038225528 0.049242567 0.028453212 0.025673639 0.061092246 0.053827405 0.04550807
0.036291555 0.019898618 0.012072564 0.03623883 0.02459692 0.018169632 0.02459136 0.02355358
0.043431837 0.021457179 0.043603815 0.036272053 0.030674618 0.03071961 0.03746809 0.024015212
0.023861464 0.029184042 0.046840005 0.04172315 0.049611453 0.016919125 0.025152361 0.027982105
0.02719089 0.021316346 0.034037497 0.035722792 0.032863636 0.030148394 0.026284568 0.0272728
0.031495936 0.036456082 0.027133765 0.040623058 0.019784959 0.03345741 0.036940467 0.03250353
0.030753773 0.02857369 0.026986929 0.03216452 0.041996002 0.01740418 0.029684888 0.023076952
0.039466076 0.020405771 0.016009135 0.0423547 0.031516746 0.021459244 0.033638075 0.013228119
0.008178422 0.030754711 0.015300751 0.039046198 0.02499851 0.02445366 0.025820443 0.04508757
0.03424145 0.027037505 0.024437053 0.026647026 0.02976345 0.010319093 0.028977733 0.04385642
0.031161642 0.029654322 0.04101447 0.03897162 0.027603686 0.022469616 0.01806838 0.03420598
0.02449375 0.0115850475 0.033610284 0.015630955 0.028936736 0.035594564 0.02122223 0.036269903
00000000: 2f14 a23d b129 a13d dc75 a33d 3960 aa3d
00000010: 74c4 903d a24b a23d a60d a03d 31b2 8d3d
00000020: e2ce 9d3d ef9c 9c3d 9fd7 853d 06eb 8e3d
00000030: 0b1d 9b3d 7d20 983d e8c6 973d 5478 813d
00000040: 4419 993d f489 8a3d f3ee 823d 1853 8d3d
00000050: e718 823d bb01 8c3d 3a0a 823d ef00 723d
00000060: c056 793d ac71 933d a8b4 6e3d c901 693d
00000070: 47f1 7e3d bd8f 763d 2619 743d 7d53 803d
00000080: 225f 773d 502e 773d 89ff 563d fd3a 913d
00000090: 2c9b 6b3d 3c41 403d 6b66 5f3d 8db4 673d
000000a0: 3510 723d 794a 803d f8ed 6b3d d71f 693d
000000b0: aefa 663d 463b 463d fd24 893d befc 5d3d
000000c0: 3b70 5f3d 90de 6b3d 68da 5b3d f0a2 503d
000000d0: 5ab6 3d3d fd8e 863d daf8 533d 72b8 603d
000000e0: 0209 3d3d 77ff 4a3d 487a 6b3d c614 273d
000000f0: f6b5 343d c14d 3b3d ebb0 6d3d 7895 233d
00000100: 44d3 2f3d 65bb 313d 5774 383d bfac 1c3d
00000110: 95b2 343d 0be8 1d3d 06b0 813d da2f 2b3d
00000120: 0ae6 6f3d f104 463d fa99 393d 5738 493d
00000130: cd04 073d c1ee 3e3d 8985 5a3d bca9 123d
00000140: c8e2 193d 4d22 883d 46aa 5f3d 876a 563d
00000150: 14d0 693d cf4e 223d 747f 1d3d 7272 063d
00000160: a741 1b3d e57c 063d 47e7 c73c 5e9d 093d
00000170: babd 0d3d b82b 083d 8ff8 073d bb9d 223d
00000180: aef7 043d fb98 fb3c be40 0c3d 54a6 553d
00000190: 319d 723d 4ebd 0a3d 0061 583d 1375 cb3c
000001a0: e732 5c3d f314 1d3d ea57 0c3d 35c3 663d
000001b0: 7f61 eb3c 030d f73c e7cb ef3c dbb8 e33c
000001c0: 43f7 403d 8de4 e53c a528 0d3d de9b 063d
000001d0: 5189 f13c 4ffc 003d 1129 c73c 6ca0 f63c
000001e0: 8d05 423d 040a cd3c 3ecc fa3c 92e7 d13c
000001f0: f32c ee3c 0b94 1d3d c1df e03c e42f c13c
00000200: d9a2 4c3d b4a9 f13c e872 273d 4359 be3c
00000210: fdca ea3c 2ce7 853c 02ed f53c 2d0b 703d
00000220: f452 d83c 7aac 233d 86d9 f53c a93f 7c3d
00000230: f890 283d 0d15 113d fb11 643c 1fc5 233d
00000240: d5a8 3d3d a772 933c 212b fa3c c008 3d3d
00000250: 31cb 4c3d 7b18 293d 5539 363d 1ada b23c
00000260: 7d0f e33c 8c76 fc3c 2551 423d 4578 1a3d
00000270: a6e4 1e3d 204e 0c3d d6a2 123d 8af9 183d
00000280: 3dda 173d 5f92 1c3d 93b2 493d b616 e93c
00000290: 8651 d23c dd3b 7a3d 207a 5c3d ac66 3a3d
000002a0: 74a6 143d 6d02 a33c 01cc 453c 2b6f 143d
000002b0: 7b7f c93c 7bd8 943c d273 c93c 70f3 c03c
000002c0: 95e5 313d f7c6 af3c ea99 323d 0192 143d
000002d0: 5649 fb3c b1a7 fb3c 2478 193d 8dbb c43c
000002e0: 1e79 c33c 5f13 ef3c 4edb 3f3d e5e5 2a3d
000002f0: 6135 4b3d fa99 8a3c 530c ce3c ba3a e53c
00000300: 6ebf de3c 9e9f ae3c e76a 0b3d 1052 123d
00000310: 059c 063d c4f9 f63c bc52 d73c 356b df3c
00000320: e201 013d f952 153d a147 de3c 5d64 263d
00000330: 1114 a23c a30a 093d e34e 173d 6c22 053d
00000340: 56ef fb3c 5f13 ea3c b113 dd3c f2be 033d
00000350: 0004 2c3d 3693 8e3c b92d f33c e00b bd3c
00000360: 2ea7 213d 012a a73c 9725 833c 1f7c 2d3d
00000370: b417 013d 4ccb af3c 14c8 093d c1ba 583c
00000380: cafe 053c 4ef1 fb3c 00b0 7a3c e8ee 1f3d
00000390: adc9 cc3c 0b53 c83c 6585 d33c bead 383d
000003a0: c340 0c3d c27d dd3c 3730 c83c dd4a da3c
000003b0: 7bd2 f33c 6a11 293c b662 ed3c caa2 333d
000003c0: b346 ff3c 9fed f23c cafe 273d b5a0 1f3d
000003d0: 2021 e23c 3312 b83c 2404 943c 921b 0c3d
000003e0: 1ea7 c83c 36cf 3d3c f0aa 093d 7d0c 803c
000003f0: bc0c ed3c 9bcb 113d 3eda ad3c c08f 143d
