onnx_models/AdaBoost_Day4.onnx (onnx, 398404 bytes, 1 tensors)

estimators_weights f4 [400]
0.078099295 0.07624731 0.076974586 0.078618 0.07315266 0.06893598 0.080552414 0.0707631
0.0688688 0.077856205 0.064288594 0.06536266 0.06823369 0.06343387 0.06945604 0.073785886
0.064555295 0.074435234 0.06496367 0.06398263 0.06924045 0.06340131 0.06335367 0.066239186
0.062538914 0.07612064 0.059607394 0.06546522 0.05879996 0.06005582 0.05753497 0.062312346
0.05782741 0.0573951 0.06678854 0.05498807 0.0615963 0.054241102 0.057464305 0.052868325
0.057797633 0.055006303 0.05452038 0.05915299 0.05605094 0.05610133 0.052957065 0.053421795
0.049814433 0.051489297 0.055119835 0.053297237 0.05543903 0.046658676 0.052326303 0.046147704
0.04593943 0.06241282 0.05423879 0.050149404 0.04515058 0.060880296 0.049017936 0.048219275
0.0383016 0.04784995 0.04840787 0.056112863 0.06340613 0.058624834 0.061476745 0.051248357
0.04111234 0.031007241 0.039205994 0.04934008 0.037169337 0.0391486 0.030433644 0.06556449
0.04280911 0.03916847 0.052761286 0.051897757 0.05255277 0.035120204 0.036754165 0.06319118
0.033318613 0.048979934 0.033806205 0.04019168 0.045264017 0.04908196 0.033095233 0.040223476
0.037899118 0.029964864 0.04626733 0.03559697 0.043396473 0.034750775 0.03845215 0.05478034
0.035791 0.045925405 0.05748583 0.031992912 0.028439347 0.04397643 0.045012876 0.030537378
0.039654166 0.03393619 0.04205296 0.038715616 0.026944382 0.03395119 0.028416485 0.033429194
0.042130966 0.036387682 0.0236939 0.04601486 0.039983843 0.038444206 0.024084736 0.03176508
0.03492416 0.03172983 0.016900487 0.026017532 0.04236183 0.02622358 0.034582317 0.038145613
0.033336684 0.03569914 0.029506233 0.033216868 0.03628599 0.01963171 0.020499248 0.040166996
0.025340281 0.033370525 0.03293835 0.036733843 0.025672156 0.032150656 0.030983057 0.0243895
0.021955669 0.03608477 0.035138804 0.025484124 0.026455382 0.04385277 0.027183548 0.036107957
0.018120708 0.028854169 0.031142438 0.03992252 0.021006301 0.040241778 0.027190492 0.014147578
0.02368705 0.025187934 0.01717056 0.034854397 0.018297365 0.039654095 0.0379044 0.029940432
0.03590084 0.039099526 0.025890967 0.023755204 0.04031872 0.01763112 0.032210894 0.035852447
0.044385303 0.03244299 0.020441227 0.039081402 0.019680193 0.034297146 0.034114927 0.045890126
0.040309414 0.042379003 0.03332693 0.03462067 0.04090177 0.040094897 0.026739053 0.012337705
0.047754407 0.034464914 0.013045804 0.023546426 0.025105126 0.02650381 0.02360609 0.022704637
0.02533371 0.014967142 0.028479587 0.027539931 0.050019685 0.03144539 0.03480487 0.03645074
0.02879254 0.014162482 0.04059023 0.04325125 0.031093068 0.04113461 0.015245699 0.035590127
0.02512962 0.018085316 0.030654185 0.027055735 0.032220818 0.032239296 0.03251429 0.040402815
0.022358833 0.05040016 0.033303495 0.03401555 0.024908436 0.011727061 0.024436431 0.041689288
0.034783054 0.030190839 0.03522986 0.04695976 0.019644974 0.039534785 0.025687093 0.02462077
0.037476774 0.032791015 0.038436607 0.027938718 0.0403446 0.013278857 0.036316376 0.027016334
00000000: 86f2 9f3d 8d27 9c3d daa4 9d3d 7902 a13d
00000010: 10d1 953d 4f2e 8d3d aaf8 a43d 3fec 903d
00000020: 160b 8d3d 1373 9f3d bda9 833d dcdc 853d
00000030: 1bbe 8b3d 9ee9 813d f83e 8e3d 0e1d 973d
00000040: 9135 843d 8071 983d ac0b 853d 5309 833d
00000050: f0cd 8d3d 8cd8 813d 92bf 813d 69a8 873d
00000060: 6714 803d 23e5 9b3d e226 743d a112 863d
00000070: 3ad8 703d 17fd 753d caa9 6b3d 3b3b 7f3d
00000080: 6fdc 6c3d 2017 6b3d 6ec8 883d 2c3b 613d
00000090: 674c 7c3d eb2b 5e3d b15f 6b3d 758c 583d
000000a0: 36bd 6c3d 4a4e 613d c350 5f3d 684a 723d
000000b0: ac95 653d 82ca 653d 82e9 583d d0d0 5a3d
000000c0: 380a 4c3d 71e6 523d 56c5 613d 344e 5a3d
000000d0: 0914 633d 2b1d 3f3d 1b54 563d 6005 3d3d
000000e0: fc2a 3c3d 96a4 7f3d 7e29 5e3d 7669 4d3d
000000f0: d1ef 383d 9e5d 793d 08c7 483d 9381 453d
00000100: 23e2 1c3d 4ffe 433d 5547 463d 9ad6 653d
00000110: 13db 813d 9820 703d 0acf 7b3d cce9 513d
00000120: 6a65 283d e602 fe3c 7796 203d d318 4a3d
00000130: e03e 183d 485a 203d fa4f f93c ad46 863d
00000140: 9b58 2f3d 1e6f 203d 381c 583d be92 543d
00000150: 9341 573d 34da 0f3d 898b 163d 616a 813d
00000160: 1979 083d 2f9f 483d 6078 0a3d 08a0 243d
00000170: c366 393d 2a0a 493d de8e 073d 5fc1 243d
00000180: 1b3c 1b3d e078 f53c d082 3d3d 21ce 113d
00000190: 80c0 313d d456 0e3d 0080 1d3d 5a61 603d
000001a0: 9599 123d 471c 3c3d 4376 6b3d 000b 033d
000001b0: a2f9 e83c a120 343d 6c5f 383d 8629 fa3c
000001c0: 686c 223d ad00 0b3d b93f 2c3d 4494 1e3d
000001d0: 77ba dc3c 6710 0b3d b0c9 e83c 0ded 083d
000001e0: 8591 2c3d 400b 153d b619 c23c 147a 3c3d
000001f0: 19c6 233d ac77 1d3d 5a4d c53c 1a1c 023d
00000200: a30c 0f3d 23f7 013d e472 8a3c b822 d53c
00000210: 9983 2d3d d5d2 d63c 30a6 0d3d 933e 1c3d
00000220: 0c8c 083d 4339 123d 0eb7 f13c 690e 083d
00000230: 9ea0 143d aed2 a03c 0aee a73c 2686 243d
00000240: 6c96 cf3c 88af 083d 5dea 063d 3a76 163d
00000250: 6a4e d23c 68b0 033d 2ed0 fd3c 7dcc c73c
00000260: 60dc b33c a0cd 133d b5ed 0f3d 15c4 d03c
00000270: f5b8 d83c f69e 333d 08b0 de3c f0e5 133d
00000280: e171 943c 945f ec3c 6d1e ff3c cc85 233d
00000290: 6815 ac3c 90d4 243d 98be de3c 3ecb 673c
000002a0: 580b c23c ed56 ce3c 46a9 8c3c 7cc3 0e3d
000002b0: 5be4 953c 556c 223d a541 1b3d a345 f53c
000002c0: c20c 133d d326 203d 4b19 d43c 469a c23c
000002d0: 3e25 253d 236f 903c 92ef 033d 04da 123d
000002e0: 5dcd 353d f1e2 043d 5c74 a73c d213 203d
000002f0: 5b38 a13c 2a7b 0c3d 18bc 0b3d 49f7 3b3d
00000300: 7c1b 253d 9b95 2d3d d281 083d 67ce 0d3d
00000310: 9d88 273d 8c3a 243d dc0b db3c 1624 4a3c
00000320: 209a 433d 152b 0d3d 11be 553c 6fe4 c03c
00000330: 44a9 cd3c 851e d93c 8f61 c13c 13ff b93c
00000340: a488 cf3c be38 753c 064e e93c 6c9b e13c
00000350: 71e1 4c3d e2cc 003d 8d8f 0e3d 5f4d 153d
00000360: 55de eb3c c109 683c f141 263d 3928 313d
00000370: e4b6 fe3c c47c 283d 19c9 793c f4c6 113d
00000380: a2dc cd3c a827 943c 7c1e fb3c fda3 dd3c
00000390: faf9 033d 5a0d 043d b42d 053d 6c7d 253d
000003a0: df29 b73c 6670 4e3d 3f69 083d e453 0b3d
000003b0: c70c cc3c dc22 403c e92e c83c 63c2 2a3d
000003c0: ad78 0e3d c752 f73c 304d 103d e158 403d
000003d0: 7fee a03c 3aef 213d bd6d d23c 7fb1 c93c
000003e0: 3f81 193d df4f 063d b46f 1d3d bddf e43c
000003f0: 6140 253d 908f 593c 7bc0 143d 5c51 dd3c
